…
2024-04-23 02:26:55,282 - mmdet - INFO - initialize SECONDFPN with init_cfg [{'type': 'Kaiming', 'layer': 'ConvTranspose2d'}, {'type': 'Constant', 'layer': 'NaiveSyncBatchNorm2d', 'val': 1.0}]
2024-04-23 02:26:55,345 - mmdet - INFO - initialize CPFPN with init_cfg {'type': 'Xavier', 'layer': 'Conv2d', 'distribution': 'uniform'}
2024-04-23 02:26:55,361 - mmdet - INFO - Model:
CmtDetector(
  (pts_voxel_encoder): HardSimpleVFE()
  (pts_middle_encoder): SparseEncoder(
    (conv_input): SparseSequential(
      (0): SubMConv3d(69, 16, kernel_size=[3, 3, 3], stride=[1, 1, 1], padding=[1, 1, 1], dilation=[1, 1, 1], output_padding=[0, 0, 0], bias=False, algo=ConvAlgo.MaskImplicitGemm)
      (1): BatchNorm1d(16, eps=0.001, momentum=0.01, affine=True, track_running_stats=True)
      (2): ReLU(inplace=True)
    )
    (encoder_layers): SparseSequential(
      (encoder_layer1): SparseSequential(
        (0): SparseBasicBlock(
          (conv1): SubMConv3d(16, 16, kernel_size=[3, 3, 3], stride=[1, 1, 1], padding=[1, 1, 1], dilation=[1, 1, 1], output_padding=[0, 0, 0], bias=False, algo=ConvAlgo.MaskImplicitGemm)
          (bn1): BatchNorm1d(16, eps=0.001, momentum=0.01, affine=True, track_running_stats=True)
          (conv2): SubMConv3d(16, 16, kernel_size=[3, 3, 3], stride=[1, 1, 1], padding=[1, 1, 1], dilation=[1, 1, 1], output_padding=[0, 0, 0], bias=False, algo=ConvAlgo.MaskImplicitGemm)
          (bn2): BatchNorm1d(16, eps=0.001, momentum=0.01, affine=True, track_running_stats=True)
          (relu): ReLU(inplace=True)
        )
        (1): SparseBasicBlock(
          (conv1): SubMConv3d(16, 16, kernel_size=[3, 3, 3], stride=[1, 1, 1], padding=[1, 1, 1], dilation=[1, 1, 1], output_padding=[0, 0, 0], bias=False, algo=ConvAlgo.MaskImplicitGemm)
          (bn1): BatchNorm1d(16, eps=0.001, momentum=0.01, affine=True, track_running_stats=True)
          (conv2): SubMConv3d(16, 16, kernel_size=[3, 3, 3], stride=[1, 1, 1], padding=[1, 1, 1], dilation=[1, 1, 1], output_padding=[0, 0, 0], bias=False, algo=ConvAlgo.MaskImplicitGemm)
          (bn2): BatchNorm1d(16, eps=0.001, momentum=0.01, affine=True, track_running_stats=True)
          (relu): ReLU(inplace=True)
        )
        (2): SparseSequential(
          (0): SparseConv3d(16, 32, kernel_size=[3, 3, 3], stride=[2, 2, 2], padding=[1, 1, 1], dilation=[1, 1, 1], output_padding=[0, 0, 0], bias=False, algo=ConvAlgo.MaskImplicitGemm)
          (1): BatchNorm1d(32, eps=0.001, momentum=0.01, affine=True, track_running_stats=True)
          (2): ReLU(inplace=True)
        )
      )
      (encoder_layer2): SparseSequential(
        (0): SparseBasicBlock(
          (conv1): SubMConv3d(32, 32, kernel_size=[3, 3, 3], stride=[1, 1, 1], padding=[1, 1, 1], dilation=[1, 1, 1], output_padding=[0, 0, 0], bias=False, algo=ConvAlgo.MaskImplicitGemm)
          (bn1): BatchNorm1d(32, eps=0.001, momentum=0.01, affine=True, track_running_stats=True)
          (conv2): SubMConv3d(32, 32, kernel_size=[3, 3, 3], stride=[1, 1, 1], padding=[1, 1, 1], dilation=[1, 1, 1], output_padding=[0, 0, 0], bias=False, algo=ConvAlgo.MaskImplicitGemm)
          (bn2): BatchNorm1d(32, eps=0.001, momentum=0.01, affine=True, track_running_stats=True)
          (relu): ReLU(inplace=True)
        )
        (1): SparseBasicBlock(
          (conv1): SubMConv3d(32, 32, kernel_size=[3, 3, 3], stride=[1, 1, 1], padding=[1, 1, 1], dilation=[1, 1, 1], output_padding=[0, 0, 0], bias=False, algo=ConvAlgo.MaskImplicitGemm)
          (bn1): BatchNorm1d(32, eps=0.001, momentum=0.01, affine=True, track_running_stats=True)
          (conv2): SubMConv3d(32, 32, kernel_size=[3, 3, 3], stride=[1, 1, 1], padding=[1, 1, 1], dilation=[1, 1, 1], output_padding=[0, 0, 0], bias=False, algo=ConvAlgo.MaskImplicitGemm)
          (bn2): BatchNorm1d(32, eps=0.001, momentum=0.01, affine=True, track_running_stats=True)
          (relu): ReLU(inplace=True)
        )
        (2): SparseSequential(
          (0): SparseConv3d(32, 64, kernel_size=[3, 3, 3], stride=[2, 2, 2], padding=[1, 1, 1], dilation=[1, 1, 1], output_padding=[0, 0, 0], bias=False, algo=ConvAlgo.MaskImplicitGemm)
          (1): BatchNorm1d(64, eps=0.001, momentum=0.01, affine=True, track_running_stats=True)
          (2): ReLU(inplace=True)
        )
      )
      (encoder_layer3): SparseSequential(
        (0): SparseBasicBlock(
          (conv1): SubMConv3d(64, 64, kernel_size=[3, 3, 3], stride=[1, 1, 1], padding=[1, 1, 1], dilation=[1, 1, 1], output_padding=[0, 0, 0], bias=False, algo=ConvAlgo.MaskImplicitGemm)
          (bn1): BatchNorm1d(64, eps=0.001, momentum=0.01, affine=True, track_running_stats=True)
          (conv2): SubMConv3d(64, 64, kernel_size=[3, 3, 3], stride=[1, 1, 1], padding=[1, 1, 1], dilation=[1, 1, 1], output_padding=[0, 0, 0], bias=False, algo=ConvAlgo.MaskImplicitGemm)
          (bn2): BatchNorm1d(64, eps=0.001, momentum=0.01, affine=True, track_running_stats=True)
          (relu): ReLU(inplace=True)
        )
        (1): SparseBasicBlock(
          (conv1): SubMConv3d(64, 64, kernel_size=[3, 3, 3], stride=[1, 1, 1], padding=[1, 1, 1], dilation=[1, 1, 1], output_padding=[0, 0, 0], bias=False, algo=ConvAlgo.MaskImplicitGemm)
          (bn1): BatchNorm1d(64, eps=0.001, momentum=0.01, affine=True, track_running_stats=True)
          (conv2): SubMConv3d(64, 64, kernel_size=[3, 3, 3], stride=[1, 1, 1], padding=[1, 1, 1], dilation=[1, 1, 1], output_padding=[0, 0, 0], bias=False, algo=ConvAlgo.MaskImplicitGemm)
          (bn2): BatchNorm1d(64, eps=0.001, momentum=0.01, affine=True, track_running_stats=True)
          (relu): ReLU(inplace=True)
        )
        (2): SparseSequential(
          (0): SparseConv3d(64, 128, kernel_size=[3, 3, 3], stride=[2, 2, 2], padding=[0, 1, 1], dilation=[1, 1, 1], output_padding=[0, 0, 0], bias=False, algo=ConvAlgo.MaskImplicitGemm)
          (1): BatchNorm1d(128, eps=0.001, momentum=0.01, affine=True, track_running_stats=True)
          (2): ReLU(inplace=True)
        )
      )
      (encoder_layer4): SparseSequential(
        (0): SparseBasicBlock(
          (conv1): SubMConv3d(128, 128, kernel_size=[3, 3, 3], stride=[1, 1, 1], padding=[1, 1, 1], dilation=[1, 1, 1], output_padding=[0, 0, 0], bias=False, algo=ConvAlgo.MaskImplicitGemm)
          (bn1): BatchNorm1d(128, eps=0.001, momentum=0.01, affine=True, track_running_stats=True)
          (conv2): SubMConv3d(128, 128, kernel_size=[3, 3, 3], stride=[1, 1, 1], padding=[1, 1, 1], dilation=[1, 1, 1], output_padding=[0, 0, 0], bias=False, algo=ConvAlgo.MaskImplicitGemm)
          (bn2): BatchNorm1d(128, eps=0.001, momentum=0.01, affine=True, track_running_stats=True)
          (relu): ReLU(inplace=True)
        )
        (1): SparseBasicBlock(
          (conv1): SubMConv3d(128, 128, kernel_size=[3, 3, 3], stride=[1, 1, 1], padding=[1, 1, 1], dilation=[1, 1, 1], output_padding=[0, 0, 0], bias=False, algo=ConvAlgo.MaskImplicitGemm)
          (bn1): BatchNorm1d(128, eps=0.001, momentum=0.01, affine=True, track_running_stats=True)
          (conv2): SubMConv3d(128, 128, kernel_size=[3, 3, 3], stride=[1, 1, 1], padding=[1, 1, 1], dilation=[1, 1, 1], output_padding=[0, 0, 0], bias=False, algo=ConvAlgo.MaskImplicitGemm)
          (bn2): BatchNorm1d(128, eps=0.001, momentum=0.01, affine=True, track_running_stats=True)
          (relu): ReLU(inplace=True)
        )
      )
    )
    (conv_out): SparseSequential(
      (0): SparseConv3d(128, 128, kernel_size=[3, 1, 1], stride=[2, 1, 1], padding=[0, 0, 0], dilation=[1, 1, 1], output_padding=[0, 0, 0], bias=False, algo=ConvAlgo.MaskImplicitGemm)
      (1): BatchNorm1d(128, eps=0.001, momentum=0.01, affine=True, track_running_stats=True)
      (2): ReLU(inplace=True)
    )
  )
  (pts_backbone): SECOND(
    (blocks): ModuleList(
      (0): Sequential(
        (0): Conv2d(256, 128, kernel_size=(3, 3), stride=(1, 1), padding=(1, 1), bias=False)
        (1): BatchNorm2d(128, eps=0.001, momentum=0.01, affine=True, track_running_stats=True)
        (2): ReLU(inplace=True)
        (3): Conv2d(128, 128, kernel_size=(3, 3), stride=(1, 1), padding=(1, 1), bias=False)
        (4): BatchNorm2d(128, eps=0.001, momentum=0.01, affine=True, track_running_stats=True)
        (5): ReLU(inplace=True)
        (6): Conv2d(128, 128, kernel_size=(3, 3), stride=(1, 1), padding=(1, 1), bias=False)
        (7): BatchNorm2d(128, eps=0.001, momentum=0.01, affine=True, track_running_stats=True)
        (8): ReLU(inplace=True)
        (9): Conv2d(128, 128, kernel_size=(3, 3), stride=(1, 1), padding=(1, 1), bias=False)
        (10): BatchNorm2d(128, eps=0.001, momentum=0.01, affine=True, track_running_stats=True)
        (11): ReLU(inplace=True)
        (12): Conv2d(128, 128, kernel_size=(3, 3), stride=(1, 1), padding=(1, 1), bias=False)
        (13): BatchNorm2d(128, eps=0.001, momentum=0.01, affine=True, track_running_stats=True)
        (14): ReLU(inplace=True)
        (15): Conv2d(128, 128, kernel_size=(3, 3), stride=(1, 1), padding=(1, 1), bias=False)
        (16): BatchNorm2d(128, eps=0.001, momentum=0.01, affine=True, track_running_stats=True)
        (17): ReLU(inplace=True)
      )
      (1): Sequential(
        (0): Conv2d(128, 256, kernel_size=(3, 3), stride=(2, 2), padding=(1, 1), bias=False)
        (1): BatchNorm2d(256, eps=0.001, momentum=0.01, affine=True, track_running_stats=True)
        (2): ReLU(inplace=True)
        (3): Conv2d(256, 256, kernel_size=(3, 3), stride=(1, 1), padding=(1, 1), bias=False)
        (4): BatchNorm2d(256, eps=0.001, momentum=0.01, affine=True, track_running_stats=True)
        (5): ReLU(inplace=True)
        (6): Conv2d(256, 256, kernel_size=(3, 3), stride=(1, 1), padding=(1, 1), bias=False)
        (7): BatchNorm2d(256, eps=0.001, momentum=0.01, affine=True, track_running_stats=True)
        (8): ReLU(inplace=True)
        (9): Conv2d(256, 256, kernel_size=(3, 3), stride=(1, 1), padding=(1, 1), bias=False)
        (10): BatchNorm2d(256, eps=0.001, momentum=0.01, affine=True, track_running_stats=True)
        (11): ReLU(inplace=True)
        (12): Conv2d(256, 256, kernel_size=(3, 3), stride=(1, 1), padding=(1, 1), bias=False)
        (13): BatchNorm2d(256, eps=0.001, momentum=0.01, affine=True, track_running_stats=True)
        (14): ReLU(inplace=True)
        (15): Conv2d(256, 256, kernel_size=(3, 3), stride=(1, 1), padding=(1, 1), bias=False)
        (16): BatchNorm2d(256, eps=0.001, momentum=0.01, affine=True, track_running_stats=True)
        (17): ReLU(inplace=True)
      )
    )
  )
  init_cfg={'type': 'Kaiming', 'layer': 'Conv2d'}
  (pts_neck): SECONDFPN(
    (deblocks): ModuleList(
      (0): Sequential(
        (0): Conv2d(128, 256, kernel_size=(1, 1), stride=(1, 1), bias=False)
        (1): BatchNorm2d(256, eps=0.001, momentum=0.01, affine=True, track_running_stats=True)
        (2): ReLU(inplace=True)
      )
      (1): Sequential(
        (0): ConvTranspose2d(256, 256, kernel_size=(2, 2), stride=(2, 2), bias=False)
        (1): BatchNorm2d(256, eps=0.001, momentum=0.01, affine=True, track_running_stats=True)
        (2): ReLU(inplace=True)
      )
    )
  )
  init_cfg=[{'type': 'Kaiming', 'layer': 'ConvTranspose2d'}, {'type': 'Constant', 'layer': 'NaiveSyncBatchNorm2d', 'val': 1.0}]
  (pts_bbox_head): CmtHead(
    (loss_cls): FocalLoss()
    (loss_bbox): L1Loss()
    (loss_heatmap): GaussianFocalLoss()
    (shared_conv): ConvModule(
      (conv): Conv2d(512, 256, kernel_size=(3, 3), stride=(1, 1), padding=(1, 1), bias=False)
      (bn): BatchNorm2d(256, eps=1e-05, momentum=0.1, affine=True, track_running_stats=True)
      (activate): ReLU(inplace=True)
    )
    (transformer): CmtTransformer(
      (decoder): PETRTransformerDecoder(
        (layers): ModuleList(
          (0-5): 6 x PETRTransformerDecoderLayer(
            (attentions): ModuleList(
              (0): MultiheadAttention(
                (attn): MultiheadAttention(
                  (out_proj): NonDynamicallyQuantizableLinear(in_features=256, out_features=256, bias=True)
                )
                (proj_drop): Dropout(p=0.0, inplace=False)
                (dropout_layer): Dropout(p=0.1, inplace=False)
              )
              (1): PETRMultiheadFlashAttention(
                (attn): FlashMHA(
                  (inner_attn): FlashAttention()
                  (out_proj): Linear(in_features=256, out_features=256, bias=True)
                )
                (proj_drop): Dropout(p=0.0, inplace=False)
                (dropout_layer): Dropout(p=0.1, inplace=False)
              )
            )
            (ffns): ModuleList(
              (0): FFN(
                (activate): ReLU(inplace=True)
                (layers): Sequential(
                  (0): Sequential(
                    (0): Linear(in_features=256, out_features=1024, bias=True)
                    (1): ReLU(inplace=True)
                    (2): Dropout(p=0.0, inplace=False)
                  )
                  (1): Linear(in_features=1024, out_features=256, bias=True)
                  (2): Dropout(p=0.0, inplace=False)
                )
                (dropout_layer): Identity()
              )
            )
            (norms): ModuleList(
              (0-2): 3 x LayerNorm((256,), eps=1e-05, elementwise_affine=True)
            )
          )
        )
        (post_norm): LayerNorm((256,), eps=1e-05, elementwise_affine=True)
      )
    )
    (reference_points): Embedding(900, 3)
    (bev_embedding): Sequential(
      (0): Linear(in_features=512, out_features=256, bias=True)
      (1): ReLU(inplace=True)
      (2): Linear(in_features=256, out_features=256, bias=True)
    )
    (rv_embedding): Sequential(
      (0): Linear(in_features=192, out_features=1024, bias=True)
      (1): ReLU(inplace=True)
      (2): Linear(in_features=1024, out_features=256, bias=True)
    )
    (task_heads): ModuleList(
      (0): SeparateTaskHead(
        (center): Sequential(
          (0): Conv1d(1536, 384, kernel_size=(1,), stride=(1,), groups=6, bias=False)
          (1): GroupLayerNorm1d()
          (2): ReLU(inplace=True)
          (3): Conv1d(384, 12, kernel_size=(1,), stride=(1,), groups=6)
        )
        (height): Sequential(
          (0): Conv1d(1536, 384, kernel_size=(1,), stride=(1,), groups=6, bias=False)
          (1): GroupLayerNorm1d()
          (2): ReLU(inplace=True)
          (3): Conv1d(384, 6, kernel_size=(1,), stride=(1,), groups=6)
        )
        (dim): Sequential(
          (0): Conv1d(1536, 384, kernel_size=(1,), stride=(1,), groups=6, bias=False)
          (1): GroupLayerNorm1d()
          (2): ReLU(inplace=True)
          (3): Conv1d(384, 18, kernel_size=(1,), stride=(1,), groups=6)
        )
        (rot): Sequential(
          (0): Conv1d(1536, 384, kernel_size=(1,), stride=(1,), groups=6, bias=False)
          (1): GroupLayerNorm1d()
          (2): ReLU(inplace=True)
          (3): Conv1d(384, 12, kernel_size=(1,), stride=(1,), groups=6)
        )
        (vel): Sequential(
          (0): Conv1d(1536, 384, kernel_size=(1,), stride=(1,), groups=6, bias=False)
          (1): GroupLayerNorm1d()
          (2): ReLU(inplace=True)
          (3): Conv1d(384, 12, kernel_size=(1,), stride=(1,), groups=6)
        )
        (cls_logits): Sequential(
          (0): Conv1d(1536, 384, kernel_size=(1,), stride=(1,), groups=6, bias=False)
          (1): GroupLayerNorm1d()
          (2): ReLU(inplace=True)
          (3): Conv1d(384, 60, kernel_size=(1,), stride=(1,), groups=6)
        )
      )
      init_cfg={'type': 'Kaiming', 'layer': 'Conv1d'}
    )
  )
  (img_backbone): VoVNet(
    (stem): Sequential(
      (stem_1/conv): Conv2d(3, 64, kernel_size=(3, 3), stride=(2, 2), padding=(1, 1), bias=False)
      (stem_1/norm): BatchNorm2d(64, eps=1e-05, momentum=0.1, affine=True, track_running_stats=True)
      (stem_1/relu): ReLU(inplace=True)
      (stem_2/conv): Conv2d(64, 64, kernel_size=(3, 3), stride=(1, 1), padding=(1, 1), bias=False)
      (stem_2/norm): BatchNorm2d(64, eps=1e-05, momentum=0.1, affine=True, track_running_stats=True)
      (stem_2/relu): ReLU(inplace=True)
      (stem_3/conv): Conv2d(64, 128, kernel_size=(3, 3), stride=(2, 2), padding=(1, 1), bias=False)
      (stem_3/norm): BatchNorm2d(128, eps=1e-05, momentum=0.1, affine=True, track_running_stats=True)
      (stem_3/relu): ReLU(inplace=True)
    )
    (stage2): _OSA_stage(
      (OSA2_1): _OSA_module(
        (layers): ModuleList(
          (0): Sequential(
            (OSA2_1_0/conv): Conv2d(128, 128, kernel_size=(3, 3), stride=(1, 1), padding=(1, 1), bias=False)
            (OSA2_1_0/norm): BatchNorm2d(128, eps=1e-05, momentum=0.1, affine=True, track_running_stats=True)
            (OSA2_1_0/relu): ReLU(inplace=True)
          )
          (1): Sequential(
            (OSA2_1_1/conv): Conv2d(128, 128, kernel_size=(3, 3), stride=(1, 1), padding=(1, 1), bias=False)
            (OSA2_1_1/norm): BatchNorm2d(128, eps=1e-05, momentum=0.1, affine=True, track_running_stats=True)
            (OSA2_1_1/relu): ReLU(inplace=True)
          )
          (2): Sequential(
            (OSA2_1_2/conv): Conv2d(128, 128, kernel_size=(3, 3), stride=(1, 1), padding=(1, 1), bias=False)
            (OSA2_1_2/norm): BatchNorm2d(128, eps=1e-05, momentum=0.1, affine=True, track_running_stats=True)
            (OSA2_1_2/relu): ReLU(inplace=True)
          )
          (3): Sequential(
            (OSA2_1_3/conv): Conv2d(128, 128, kernel_size=(3, 3), stride=(1, 1), padding=(1, 1), bias=False)
            (OSA2_1_3/norm): BatchNorm2d(128, eps=1e-05, momentum=0.1, affine=True, track_running_stats=True)
            (OSA2_1_3/relu): ReLU(inplace=True)
          )
          (4): Sequential(
            (OSA2_1_4/conv): Conv2d(128, 128, kernel_size=(3, 3), stride=(1, 1), padding=(1, 1), bias=False)
            (OSA2_1_4/norm): BatchNorm2d(128, eps=1e-05, momentum=0.1, affine=True, track_running_stats=True)
            (OSA2_1_4/relu): ReLU(inplace=True)
          )
        )
        (concat): Sequential(
          (OSA2_1_concat/conv): Conv2d(768, 256, kernel_size=(1, 1), stride=(1, 1), bias=False)
          (OSA2_1_concat/norm): BatchNorm2d(256, eps=1e-05, momentum=0.1, affine=True, track_running_stats=True)
          (OSA2_1_concat/relu): ReLU(inplace=True)
        )
        (ese): eSEModule(
          (avg_pool): AdaptiveAvgPool2d(output_size=1)
          (fc): Conv2d(256, 256, kernel_size=(1, 1), stride=(1, 1))
          (hsigmoid): Hsigmoid()
        )
      )
    )
    (stage3): _OSA_stage(
      (Pooling): MaxPool2d(kernel_size=3, stride=2, padding=0, dilation=1, ceil_mode=True)
      (OSA3_1): _OSA_module(
        (layers): ModuleList(
          (0): Sequential(
            (OSA3_1_0/conv): Conv2d(256, 160, kernel_size=(3, 3), stride=(1, 1), padding=(1, 1), bias=False)
            (OSA3_1_0/norm): BatchNorm2d(160, eps=1e-05, momentum=0.1, affine=True, track_running_stats=True)
            (OSA3_1_0/relu): ReLU(inplace=True)
          )
          (1): Sequential(
            (OSA3_1_1/conv): Conv2d(160, 160, kernel_size=(3, 3), stride=(1, 1), padding=(1, 1), bias=False)
            (OSA3_1_1/norm): BatchNorm2d(160, eps=1e-05, momentum=0.1, affine=True, track_running_stats=True)
            (OSA3_1_1/relu): ReLU(inplace=True)
          )
          (2): Sequential(
            (OSA3_1_2/conv): Conv2d(160, 160, kernel_size=(3, 3), stride=(1, 1), padding=(1, 1), bias=False)
            (OSA3_1_2/norm): BatchNorm2d(160, eps=1e-05, momentum=0.1, affine=True, track_running_stats=True)
            (OSA3_1_2/relu): ReLU(inplace=True)
          )
          (3): Sequential(
            (OSA3_1_3/conv): Conv2d(160, 160, kernel_size=(3, 3), stride=(1, 1), padding=(1, 1), bias=False)
            (OSA3_1_3/norm): BatchNorm2d(160, eps=1e-05, momentum=0.1, affine=True, track_running_stats=True)
            (OSA3_1_3/relu): ReLU(inplace=True)
          )
          (4): Sequential(
            (OSA3_1_4/conv): Conv2d(160, 160, kernel_size=(3, 3), stride=(1, 1), padding=(1, 1), bias=False)
            (OSA3_1_4/norm): BatchNorm2d(160, eps=1e-05, momentum=0.1, affine=True, track_running_stats=True)
            (OSA3_1_4/relu): ReLU(inplace=True)
          )
        )
        (concat): Sequential(
          (OSA3_1_concat/conv): Conv2d(1056, 512, kernel_size=(1, 1), stride=(1, 1), bias=False)
          (OSA3_1_concat/norm): BatchNorm2d(512, eps=1e-05, momentum=0.1, affine=True, track_running_stats=True)
          (OSA3_1_concat/relu): ReLU(inplace=True)
        )
        (ese): eSEModule(
          (avg_pool): AdaptiveAvgPool2d(output_size=1)
          (fc): Conv2d(512, 512, kernel_size=(1, 1), stride=(1, 1))
          (hsigmoid): Hsigmoid()
        )
      )
      (OSA3_2): _OSA_module(
        (layers): ModuleList(
          (0): Sequential(
            (OSA3_2_0/conv): Conv2d(512, 160, kernel_size=(3, 3), stride=(1, 1), padding=(1, 1), bias=False)
            (OSA3_2_0/norm): BatchNorm2d(160, eps=1e-05, momentum=0.1, affine=True, track_running_stats=True)
            (OSA3_2_0/relu): ReLU(inplace=True)
          )
          (1): Sequential(
            (OSA3_2_1/conv): Conv2d(160, 160, kernel_size=(3, 3), stride=(1, 1), padding=(1, 1), bias=False)
            (OSA3_2_1/norm): BatchNorm2d(160, eps=1e-05, momentum=0.1, affine=True, track_running_stats=True)
            (OSA3_2_1/relu): ReLU(inplace=True)
          )
          (2): Sequential(
            (OSA3_2_2/conv): Conv2d(160, 160, kernel_size=(3, 3), stride=(1, 1), padding=(1, 1), bias=False)
            (OSA3_2_2/norm): BatchNorm2d(160, eps=1e-05, momentum=0.1, affine=True, track_running_stats=True)
            (OSA3_2_2/relu): ReLU(inplace=True)
          )
          (3): Sequential(
            (OSA3_2_3/conv): Conv2d(160, 160, kernel_size=(3, 3), stride=(1, 1), padding=(1, 1), bias=False)
            (OSA3_2_3/norm): BatchNorm2d(160, eps=1e-05, momentum=0.1, affine=True, track_running_stats=True)
            (OSA3_2_3/relu): ReLU(inplace=True)
          )
          (4): Sequential(
            (OSA3_2_4/conv): Conv2d(160, 160, kernel_size=(3, 3), stride=(1, 1), padding=(1, 1), bias=False)
            (OSA3_2_4/norm): BatchNorm2d(160, eps=1e-05, momentum=0.1, affine=True, track_running_stats=True)
            (OSA3_2_4/relu): ReLU(inplace=True)
          )
        )
        (concat): Sequential(
          (OSA3_2_concat/conv): Conv2d(1312, 512, kernel_size=(1, 1), stride=(1, 1), bias=False)
          (OSA3_2_concat/norm): BatchNorm2d(512, eps=1e-05, momentum=0.1, affine=True, track_running_stats=True)
          (OSA3_2_concat/relu): ReLU(inplace=True)
        )
        (ese): eSEModule(
          (avg_pool): AdaptiveAvgPool2d(output_size=1)
          (fc): Conv2d(512, 512, kernel_size=(1, 1), stride=(1, 1))
          (hsigmoid): Hsigmoid()
        )
      )
      (OSA3_3): _OSA_module(
        (layers): ModuleList(
          (0): Sequential(
            (OSA3_3_0/conv): Conv2d(512, 160, kernel_size=(3, 3), stride=(1, 1), padding=(1, 1), bias=False)
            (OSA3_3_0/norm): BatchNorm2d(160, eps=1e-05, momentum=0.1, affine=True, track_running_stats=True)
            (OSA3_3_0/relu): ReLU(inplace=True)
          )
          (1): Sequential(
            (OSA3_3_1/conv): Conv2d(160, 160, kernel_size=(3, 3), stride=(1, 1), padding=(1, 1), bias=False)
            (OSA3_3_1/norm): BatchNorm2d(160, eps=1e-05, momentum=0.1, affine=True, track_running_stats=True)
            (OSA3_3_1/relu): ReLU(inplace=True)
          )
          (2): Sequential(
            (OSA3_3_2/conv): Conv2d(160, 160, kernel_size=(3, 3), stride=(1, 1), padding=(1, 1), bias=False)
            (OSA3_3_2/norm): BatchNorm2d(160, eps=1e-05, momentum=0.1, affine=True, track_running_stats=True)
            (OSA3_3_2/relu): ReLU(inplace=True)
          )
          (3): Sequential(
            (OSA3_3_3/conv): Conv2d(160, 160, kernel_size=(3, 3), stride=(1, 1), padding=(1, 1), bias=False)
            (OSA3_3_3/norm): BatchNorm2d(160, eps=1e-05, momentum=0.1, affine=True, track_running_stats=True)
            (OSA3_3_3/relu): ReLU(inplace=True)
          )
          (4): Sequential(
            (OSA3_3_4/conv): Conv2d(160, 160, kernel_size=(3, 3), stride=(1, 1), padding=(1, 1), bias=False)
            (OSA3_3_4/norm): BatchNorm2d(160, eps=1e-05, momentum=0.1, affine=True, track_running_stats=True)
            (OSA3_3_4/relu): ReLU(inplace=True)
          )
        )
        (concat): Sequential(
          (OSA3_3_concat/conv): Conv2d(1312, 512, kernel_size=(1, 1), stride=(1, 1), bias=False)
          (OSA3_3_concat/norm): BatchNorm2d(512, eps=1e-05, momentum=0.1, affine=True, track_running_stats=True)
          (OSA3_3_concat/relu): ReLU(inplace=True)
        )
        (ese): eSEModule(
          (avg_pool): AdaptiveAvgPool2d(output_size=1)
          (fc): Conv2d(512, 512, kernel_size=(1, 1), stride=(1, 1))
          (hsigmoid): Hsigmoid()
        )
      )
    )
    (stage4): _OSA_stage(
      (Pooling): MaxPool2d(kernel_size=3, stride=2, padding=0, dilation=1, ceil_mode=True)
      (OSA4_1): _OSA_module(
        (layers): ModuleList(
          (0): Sequential(
            (OSA4_1_0/conv): Conv2d(512, 192, kernel_size=(3, 3), stride=(1, 1), padding=(1, 1), bias=False)
            (OSA4_1_0/norm): BatchNorm2d(192, eps=1e-05, momentum=0.1, affine=True, track_running_stats=True)
            (OSA4_1_0/relu): ReLU(inplace=True)
          )
          (1): Sequential(
            (OSA4_1_1/conv): Conv2d(192, 192, kernel_size=(3, 3), stride=(1, 1), padding=(1, 1), bias=False)
            (OSA4_1_1/norm): BatchNorm2d(192, eps=1e-05, momentum=0.1, affine=True, track_running_stats=True)
            (OSA4_1_1/relu): ReLU(inplace=True)
          )
          (2): Sequential(
            (OSA4_1_2/conv): Conv2d(192, 192, kernel_size=(3, 3), stride=(1, 1), padding=(1, 1), bias=False)
            (OSA4_1_2/norm): BatchNorm2d(192, eps=1e-05, momentum=0.1, affine=True, track_running_stats=True)
            (OSA4_1_2/relu): ReLU(inplace=True)
          )
          (3): Sequential(
            (OSA4_1_3/conv): Conv2d(192, 192, kernel_size=(3, 3), stride=(1, 1), padding=(1, 1), bias=False)
            (OSA4_1_3/norm): BatchNorm2d(192, eps=1e-05, momentum=0.1, affine=True, track_running_stats=True)
            (OSA4_1_3/relu): ReLU(inplace=True)
          )
          (4): Sequential(
            (OSA4_1_4/conv): Conv2d(192, 192, kernel_size=(3, 3), stride=(1, 1), padding=(1, 1), bias=False)
            (OSA4_1_4/norm): BatchNorm2d(192, eps=1e-05, momentum=0.1, affine=True, track_running_stats=True)
            (OSA4_1_4/relu): ReLU(inplace=True)
          )
        )
        (concat): Sequential(
          (OSA4_1_concat/conv): Conv2d(1472, 768, kernel_size=(1, 1), stride=(1, 1), bias=False)
          (OSA4_1_concat/norm): BatchNorm2d(768, eps=1e-05, momentum=0.1, affine=True, track_running_stats=True)
          (OSA4_1_concat/relu): ReLU(inplace=True)
        )
        (ese): eSEModule(
          (avg_pool): AdaptiveAvgPool2d(output_size=1)
          (fc): Conv2d(768, 768, kernel_size=(1, 1), stride=(1, 1))
          (hsigmoid): Hsigmoid()
        )
      )
      (OSA4_2): _OSA_module(
        (layers): ModuleList(
          (0): Sequential(
            (OSA4_2_0/conv): Conv2d(768, 192, kernel_size=(3, 3), stride=(1, 1), padding=(1, 1), bias=False)
            (OSA4_2_0/norm): BatchNorm2d(192, eps=1e-05, momentum=0.1, affine=True, track_running_stats=True)
            (OSA4_2_0/relu): ReLU(inplace=True)
          )
          (1): Sequential(
            (OSA4_2_1/conv): Conv2d(192, 192, kernel_size=(3, 3), stride=(1, 1), padding=(1, 1), bias=False)
            (OSA4_2_1/norm): BatchNorm2d(192, eps=1e-05, momentum=0.1, affine=True, track_running_stats=True)
            (OSA4_2_1/relu): ReLU(inplace=True)
          )
          (2): Sequential(
            (OSA4_2_2/conv): Conv2d(192, 192, kernel_size=(3, 3), stride=(1, 1), padding=(1, 1), bias=False)
            (OSA4_2_2/norm): BatchNorm2d(192, eps=1e-05, momentum=0.1, affine=True, track_running_stats=True)
            (OSA4_2_2/relu): ReLU(inplace=True)
          )
          (3): Sequential(
            (OSA4_2_3/conv): Conv2d(192, 192, kernel_size=(3, 3), stride=(1, 1), padding=(1, 1), bias=False)
            (OSA4_2_3/norm): BatchNorm2d(192, eps=1e-05, momentum=0.1, affine=True, track_running_stats=True)
            (OSA4_2_3/relu): ReLU(inplace=True)
          )
          (4): Sequential(
            (OSA4_2_4/conv): Conv2d(192, 192, kernel_size=(3, 3), stride=(1, 1), padding=(1, 1), bias=False)
            (OSA4_2_4/norm): BatchNorm2d(192, eps=1e-05, momentum=0.1, affine=True, track_running_stats=True)
            (OSA4_2_4/relu): ReLU(inplace=True)
          )
        )
        (concat): Sequential(
          (OSA4_2_concat/conv): Conv2d(1728, 768, kernel_size=(1, 1), stride=(1, 1), bias=False)
          (OSA4_2_concat/norm): BatchNorm2d(768, eps=1e-05, momentum=0.1, affine=True, track_running_stats=True)
          (OSA4_2_concat/relu): ReLU(inplace=True)
        )
        (ese): eSEModule(
          (avg_pool): AdaptiveAvgPool2d(output_size=1)
          (fc): Conv2d(768, 768, kernel_size=(1, 1), stride=(1, 1))
          (hsigmoid): Hsigmoid()
        )
      )
      (OSA4_3): _OSA_module(
        (layers): ModuleList(
          (0): Sequential(
            (OSA4_3_0/conv): Conv2d(768, 192, kernel_size=(3, 3), stride=(1, 1), padding=(1, 1), bias=False)
            (OSA4_3_0/norm): BatchNorm2d(192, eps=1e-05, momentum=0.1, affine=True, track_running_stats=True)
            (OSA4_3_0/relu): ReLU(inplace=True)
          )
          (1): Sequential(
            (OSA4_3_1/conv): Conv2d(192, 192, kernel_size=(3, 3), stride=(1, 1), padding=(1, 1), bias=False)
            (OSA4_3_1/norm): BatchNorm2d(192, eps=1e-05, momentum=0.1, affine=True, track_running_stats=True)
            (OSA4_3_1/relu): ReLU(inplace=True)
          )
          (2): Sequential(
            (OSA4_3_2/conv): Conv2d(192, 192, kernel_size=(3, 3), stride=(1, 1), padding=(1, 1), bias=False)
            (OSA4_3_2/norm): BatchNorm2d(192, eps=1e-05, momentum=0.1, affine=True, track_running_stats=True)
            (OSA4_3_2/relu): ReLU(inplace=True)
          )
          (3): Sequential(
            (OSA4_3_3/conv): Conv2d(192, 192, kernel_size=(3, 3), stride=(1, 1), padding=(1, 1), bias=False)
            (OSA4_3_3/norm): BatchNorm2d(192, eps=1e-05, momentum=0.1, affine=True, track_running_stats=True)
            (OSA4_3_3/relu): ReLU(inplace=True)
          )
          (4): Sequential(
            (OSA4_3_4/conv): Conv2d(192, 192, kernel_size=(3, 3), stride=(1, 1), padding=(1, 1), bias=False)
            (OSA4_3_4/norm): BatchNorm2d(192, eps=1e-05, momentum=0.1, affine=True, track_running_stats=True)
            (OSA4_3_4/relu): ReLU(inplace=True)
          )
        )
        (concat): Sequential(
          (OSA4_3_concat/conv): Conv2d(1728, 768, kernel_size=(1, 1), stride=(1, 1), bias=False)
          (OSA4_3_concat/norm): BatchNorm2d(768, eps=1e-05, momentum=0.1, affine=True, track_running_stats=True)
          (OSA4_3_concat/relu): ReLU(inplace=True)
        )
        (ese): eSEModule(
          (avg_pool): AdaptiveAvgPool2d(output_size=1)
          (fc): Conv2d(768, 768, kernel_size=(1, 1), stride=(1, 1))
          (hsigmoid): Hsigmoid()
        )
      )
      (OSA4_4): _OSA_module(
        (layers): ModuleList(
          (0): Sequential(
            (OSA4_4_0/conv): Conv2d(768, 192, kernel_size=(3, 3), stride=(1, 1), padding=(1, 1), bias=False)
            (OSA4_4_0/norm): BatchNorm2d(192, eps=1e-05, momentum=0.1, affine=True, track_running_stats=True)
            (OSA4_4_0/relu): ReLU(inplace=True)
          )
          (1): Sequential(
            (OSA4_4_1/conv): Conv2d(192, 192, kernel_size=(3, 3), stride=(1, 1), padding=(1, 1), bias=False)
            (OSA4_4_1/norm): BatchNorm2d(192, eps=1e-05, momentum=0.1, affine=True, track_running_stats=True)
            (OSA4_4_1/relu): ReLU(inplace=True)
          )
          (2): Sequential(
            (OSA4_4_2/conv): Conv2d(192, 192, kernel_size=(3, 3), stride=(1, 1), padding=(1, 1), bias=False)
            (OSA4_4_2/norm): BatchNorm2d(192, eps=1e-05, momentum=0.1, affine=True, track_running_stats=True)
            (OSA4_4_2/relu): ReLU(inplace=True)
          )
          (3): Sequential(
            (OSA4_4_3/conv): Conv2d(192, 192, kernel_size=(3, 3), stride=(1, 1), padding=(1, 1), bias=False)
            (OSA4_4_3/norm): BatchNorm2d(192, eps=1e-05, momentum=0.1, affine=True, track_running_stats=True)
            (OSA4_4_3/relu): ReLU(inplace=True)
          )
          (4): Sequential(
            (OSA4_4_4/conv): Conv2d(192, 192, kernel_size=(3, 3), stride=(1, 1), padding=(1, 1), bias=False)
            (OSA4_4_4/norm): BatchNorm2d(192, eps=1e-05, momentum=0.1, affine=True, track_running_stats=True)
            (OSA4_4_4/relu): ReLU(inplace=True)
          )
        )
        (concat): Sequential(
          (OSA4_4_concat/conv): Conv2d(1728, 768, kernel_size=(1, 1), stride=(1, 1), bias=False)
          (OSA4_4_concat/norm): BatchNorm2d(768, eps=1e-05, momentum=0.1, affine=True, track_running_stats=True)
          (OSA4_4_concat/relu): ReLU(inplace=True)
        )
        (ese): eSEModule(
          (avg_pool): AdaptiveAvgPool2d(output_size=1)
          (fc): Conv2d(768, 768, kernel_size=(1, 1), stride=(1, 1))
          (hsigmoid): Hsigmoid()
        )
      )
      (OSA4_5): _OSA_module(
        (layers): ModuleList(
          (0): Sequential(
            (OSA4_5_0/conv): Conv2d(768, 192, kernel_size=(3, 3), stride=(1, 1), padding=(1, 1), bias=False)
            (OSA4_5_0/norm): BatchNorm2d(192, eps=1e-05, momentum=0.1, affine=True, track_running_stats=True)
            (OSA4_5_0/relu): ReLU(inplace=True)
          )
          (1): Sequential(
            (OSA4_5_1/conv): Conv2d(192, 192, kernel_size=(3, 3), stride=(1, 1), padding=(1, 1), bias=False)
            (OSA4_5_1/norm): BatchNorm2d(192, eps=1e-05, momentum=0.1, affine=True, track_running_stats=True)
            (OSA4_5_1/relu): ReLU(inplace=True)
          )
          (2): Sequential(
            (OSA4_5_2/conv): Conv2d(192, 192, kernel_size=(3, 3), stride=(1, 1), padding=(1, 1), bias=False)
            (OSA4_5_2/norm): BatchNorm2d(192, eps=1e-05, momentum=0.1, affine=True, track_running_stats=True)
            (OSA4_5_2/relu): ReLU(inplace=True)
          )
          (3): Sequential(
            (OSA4_5_3/conv): Conv2d(192, 192, kernel_size=(3, 3), stride=(1, 1), padding=(1, 1), bias=False)
            (OSA4_5_3/norm): BatchNorm2d(192, eps=1e-05, momentum=0.1, affine=True, track_running_stats=True)
            (OSA4_5_3/relu): ReLU(inplace=True)
          )
          (4): Sequential(
            (OSA4_5_4/conv): Conv2d(192, 192, kernel_size=(3, 3), stride=(1, 1), padding=(1, 1), bias=False)
            (OSA4_5_4/norm): BatchNorm2d(192, eps=1e-05, momentum=0.1, affine=True, track_running_stats=True)
            (OSA4_5_4/relu): ReLU(inplace=True)
          )
        )
        (concat): Sequential(
          (OSA4_5_concat/conv): Conv2d(1728, 768, kernel_size=(1, 1), stride=(1, 1), bias=False)
          (OSA4_5_concat/norm): BatchNorm2d(768, eps=1e-05, momentum=0.1, affine=True, track_running_stats=True)
          (OSA4_5_concat/relu): ReLU(inplace=True)
        )
        (ese): eSEModule(
          (avg_pool): AdaptiveAvgPool2d(output_size=1)
          (fc): Conv2d(768, 768, kernel_size=(1, 1), stride=(1, 1))
          (hsigmoid): Hsigmoid()
        )
      )
      (OSA4_6): _OSA_module(
        (layers): ModuleList(
          (0): Sequential(
            (OSA4_6_0/conv): Conv2d(768, 192, kernel_size=(3, 3), stride=(1, 1), padding=(1, 1), bias=False)
            (OSA4_6_0/norm): BatchNorm2d(192, eps=1e-05, momentum=0.1, affine=True, track_running_stats=True)
            (OSA4_6_0/relu): ReLU(inplace=True)
          )
          (1): Sequential(
            (OSA4_6_1/conv): Conv2d(192, 192, kernel_size=(3, 3), stride=(1, 1), padding=(1, 1), bias=False)
            (OSA4_6_1/norm): BatchNorm2d(192, eps=1e-05, momentum=0.1, affine=True, track_running_stats=True)
            (OSA4_6_1/relu): ReLU(inplace=True)
          )
          (2): Sequential(
            (OSA4_6_2/conv): Conv2d(192, 192, kernel_size=(3, 3), stride=(1, 1), padding=(1, 1), bias=False)
            (OSA4_6_2/norm): BatchNorm2d(192, eps=1e-05, momentum=0.1, affine=True, track_running_stats=True)
            (OSA4_6_2/relu): ReLU(inplace=True)
          )
          (3): Sequential(
            (OSA4_6_3/conv): Conv2d(192, 192, kernel_size=(3, 3), stride=(1, 1), padding=(1, 1), bias=False)
            (OSA4_6_3/norm): BatchNorm2d(192, eps=1e-05, momentum=0.1, affine=True, track_running_stats=True)
            (OSA4_6_3/relu): ReLU(inplace=True)
          )
          (4): Sequential(
            (OSA4_6_4/conv): Conv2d(192, 192, kernel_size=(3, 3), stride=(1, 1), padding=(1, 1), bias=False)
            (OSA4_6_4/norm): BatchNorm2d(192, eps=1e-05, momentum=0.1, affine=True, track_running_stats=True)
            (OSA4_6_4/relu): ReLU(inplace=True)
          )
        )
        (concat): Sequential(
          (OSA4_6_concat/conv): Conv2d(1728, 768, kernel_size=(1, 1), stride=(1, 1), bias=False)
          (OSA4_6_concat/norm): BatchNorm2d(768, eps=1e-05, momentum=0.1, affine=True, track_running_stats=True)
          (OSA4_6_concat/relu): ReLU(inplace=True)
        )
        (ese): eSEModule(
          (avg_pool): AdaptiveAvgPool2d(output_size=1)
          (fc): Conv2d(768, 768, kernel_size=(1, 1), stride=(1, 1))
          (hsigmoid): Hsigmoid()
        )
      )
      (OSA4_7): _OSA_module(
        (layers): ModuleList(
          (0): Sequential(
            (OSA4_7_0/conv): Conv2d(768, 192, kernel_size=(3, 3), stride=(1, 1), padding=(1, 1), bias=False)
            (OSA4_7_0/norm): BatchNorm2d(192, eps=1e-05, momentum=0.1, affine=True, track_running_stats=True)
            (OSA4_7_0/relu): ReLU(inplace=True)
          )
          (1): Sequential(
            (OSA4_7_1/conv): Conv2d(192, 192, kernel_size=(3, 3), stride=(1, 1), padding=(1, 1), bias=False)
            (OSA4_7_1/norm): BatchNorm2d(192, eps=1e-05, momentum=0.1, affine=True, track_running_stats=True)
            (OSA4_7_1/relu): ReLU(inplace=True)
          )
          (2): Sequential(
            (OSA4_7_2/conv): Conv2d(192, 192, kernel_size=(3, 3), stride=(1, 1), padding=(1, 1), bias=False)
            (OSA4_7_2/norm): BatchNorm2d(192, eps=1e-05, momentum=0.1, affine=True, track_running_stats=True)
            (OSA4_7_2/relu): ReLU(inplace=True)
          )
          (3): Sequential(
            (OSA4_7_3/conv): Conv2d(192, 192, kernel_size=(3, 3), stride=(1, 1), padding=(1, 1), bias=False)
            (OSA4_7_3/norm): BatchNorm2d(192, eps=1e-05, momentum=0.1, affine=True, track_running_stats=True)
            (OSA4_7_3/relu): ReLU(inplace=True)
          )
          (4): Sequential(
            (OSA4_7_4/conv): Conv2d(192, 192, kernel_size=(3, 3), stride=(1, 1), padding=(1, 1), bias=False)
            (OSA4_7_4/norm): BatchNorm2d(192, eps=1e-05, momentum=0.1, affine=True, track_running_stats=True)
            (OSA4_7_4/relu): ReLU(inplace=True)
          )
        )
        (concat): Sequential(
          (OSA4_7_concat/conv): Conv2d(1728, 768, kernel_size=(1, 1), stride=(1, 1), bias=False)
          (OSA4_7_concat/norm): BatchNorm2d(768, eps=1e-05, momentum=0.1, affine=True, track_running_stats=True)
          (OSA4_7_concat/relu): ReLU(inplace=True)
        )
        (ese): eSEModule(
          (avg_pool): AdaptiveAvgPool2d(output_size=1)
          (fc): Conv2d(768, 768, kernel_size=(1, 1), stride=(1, 1))
          (hsigmoid): Hsigmoid()
        )
      )
      (OSA4_8): _OSA_module(
        (layers): ModuleList(
          (0): Sequential(
            (OSA4_8_0/conv): Conv2d(768, 192, kernel_size=(3, 3), stride=(1, 1), padding=(1, 1), bias=False)
            (OSA4_8_0/norm): BatchNorm2d(192, eps=1e-05, momentum=0.1, affine=True, track_running_stats=True)
            (OSA4_8_0/relu): ReLU(inplace=True)
          )
          (1): Sequential(
            (OSA4_8_1/conv): Conv2d(192, 192, kernel_size=(3, 3), stride=(1, 1), padding=(1, 1), bias=False)
            (OSA4_8_1/norm): BatchNorm2d(192, eps=1e-05, momentum=0.1, affine=True, track_running_stats=True)
            (OSA4_8_1/relu): ReLU(inplace=True)
          )
          (2): Sequential(
            (OSA4_8_2/conv): Conv2d(192, 192, kernel_size=(3, 3), stride=(1, 1), padding=(1, 1), bias=False)
            (OSA4_8_2/norm): BatchNorm2d(192, eps=1e-05, momentum=0.1, affine=True, track_running_stats=True)
            (OSA4_8_2/relu): ReLU(inplace=True)
          )
          (3): Sequential(
            (OSA4_8_3/conv): Conv2d(192, 192, kernel_size=(3, 3), stride=(1, 1), padding=(1, 1), bias=False)
            (OSA4_8_3/norm): BatchNorm2d(192, eps=1e-05, momentum=0.1, affine=True, track_running_stats=True)
            (OSA4_8_3/relu): ReLU(inplace=True)
          )
          (4): Sequential(
            (OSA4_8_4/conv): Conv2d(192, 192, kernel_size=(3, 3), stride=(1, 1), padding=(1, 1), bias=False)
            (OSA4_8_4/norm): BatchNorm2d(192, eps=1e-05, momentum=0.1, affine=True, track_running_stats=True)
            (OSA4_8_4/relu): ReLU(inplace=True)
          )
        )
        (concat): Sequential(
          (OSA4_8_concat/conv): Conv2d(1728, 768, kernel_size=(1, 1), stride=(1, 1), bias=False)
          (OSA4_8_concat/norm): BatchNorm2d(768, eps=1e-05, momentum=0.1, affine=True, track_running_stats=True)
          (OSA4_8_concat/relu): ReLU(inplace=True)
        )
        (ese): eSEModule(
          (avg_pool): AdaptiveAvgPool2d(output_size=1)
          (fc): Conv2d(768, 768, kernel_size=(1, 1), stride=(1, 1))
          (hsigmoid): Hsigmoid()
        )
      )
      (OSA4_9): _OSA_module(
        (layers): ModuleList(
          (0): Sequential(
            (OSA4_9_0/conv): Conv2d(768, 192, kernel_size=(3, 3), stride=(1, 1), padding=(1, 1), bias=False)
            (OSA4_9_0/norm): BatchNorm2d(192, eps=1e-05, momentum=0.1, affine=True, track_running_stats=True)
            (OSA4_9_0/relu): ReLU(inplace=True)
          )
          (1): Sequential(
            (OSA4_9_1/conv): Conv2d(192, 192, kernel_size=(3, 3), stride=(1, 1), padding=(1, 1), bias=False)
            (OSA4_9_1/norm): BatchNorm2d(192, eps=1e-05, momentum=0.1, affine=True, track_running_stats=True)
            (OSA4_9_1/relu): ReLU(inplace=True)
          )
          (2): Sequential(
            (OSA4_9_2/conv): Conv2d(192, 192, kernel_size=(3, 3), stride=(1, 1), padding=(1, 1), bias=False)
            (OSA4_9_2/norm): BatchNorm2d(192, eps=1e-05, momentum=0.1, affine=True, track_running_stats=True)
            (OSA4_9_2/relu): ReLU(inplace=True)
          )
          (3): Sequential(
            (OSA4_9_3/conv): Conv2d(192, 192, kernel_size=(3, 3), stride=(1, 1), padding=(1, 1), bias=False)
            (OSA4_9_3/norm): BatchNorm2d(192, eps=1e-05, momentum=0.1, affine=True, track_running_stats=True)
            (OSA4_9_3/relu): ReLU(inplace=True)
          )
          (4): Sequential(
            (OSA4_9_4/conv): Conv2d(192, 192, kernel_size=(3, 3), stride=(1, 1), padding=(1, 1), bias=False)
            (OSA4_9_4/norm): BatchNorm2d(192, eps=1e-05, momentum=0.1, affine=True, track_running_stats=True)
            (OSA4_9_4/relu): ReLU(inplace=True)
          )
        )
        (concat): Sequential(
          (OSA4_9_concat/conv): Conv2d(1728, 768, kernel_size=(1, 1), stride=(1, 1), bias=False)
          (OSA4_9_concat/norm): BatchNorm2d(768, eps=1e-05, momentum=0.1, affine=True, track_running_stats=True)
          (OSA4_9_concat/relu): ReLU(inplace=True)
        )
        (ese): eSEModule(
          (avg_pool): AdaptiveAvgPool2d(output_size=1)
          (fc): Conv2d(768, 768, kernel_size=(1, 1), stride=(1, 1))
          (hsigmoid): Hsigmoid()
        )
      )
    )
    (stage5): _OSA_stage(
      (Pooling): MaxPool2d(kernel_size=3, stride=2, padding=0, dilation=1, ceil_mode=True)
      (OSA5_1): _OSA_module(
        (layers): ModuleList(
          (0): Sequential(
            (OSA5_1_0/conv): Conv2d(768, 224, kernel_size=(3, 3), stride=(1, 1), padding=(1, 1), bias=False)
            (OSA5_1_0/norm): BatchNorm2d(224, eps=1e-05, momentum=0.1, affine=True, track_running_stats=True)
            (OSA5_1_0/relu): ReLU(inplace=True)
          )
          (1): Sequential(
            (OSA5_1_1/conv): Conv2d(224, 224, kernel_size=(3, 3), stride=(1, 1), padding=(1, 1), bias=False)
            (OSA5_1_1/norm): BatchNorm2d(224, eps=1e-05, momentum=0.1, affine=True, track_running_stats=True)
            (OSA5_1_1/relu): ReLU(inplace=True)
          )
          (2): Sequential(
            (OSA5_1_2/conv): Conv2d(224, 224, kernel_size=(3, 3), stride=(1, 1), padding=(1, 1), bias=False)
            (OSA5_1_2/norm): BatchNorm2d(224, eps=1e-05, momentum=0.1, affine=True, track_running_stats=True)
            (OSA5_1_2/relu): ReLU(inplace=True)
          )
          (3): Sequential(
            (OSA5_1_3/conv): Conv2d(224, 224, kernel_size=(3, 3), stride=(1, 1), padding=(1, 1), bias=False)
            (OSA5_1_3/norm): BatchNorm2d(224, eps=1e-05, momentum=0.1, affine=True, track_running_stats=True)
            (OSA5_1_3/relu): ReLU(inplace=True)
          )
          (4): Sequential(
            (OSA5_1_4/conv): Conv2d(224, 224, kernel_size=(3, 3), stride=(1, 1), padding=(1, 1), bias=False)
            (OSA5_1_4/norm): BatchNorm2d(224, eps=1e-05, momentum=0.1, affine=True, track_running_stats=True)
            (OSA5_1_4/relu): ReLU(inplace=True)
          )
        )
        (concat): Sequential(
          (OSA5_1_concat/conv): Conv2d(1888, 1024, kernel_size=(1, 1), stride=(1, 1), bias=False)
          (OSA5_1_concat/norm): BatchNorm2d(1024, eps=1e-05, momentum=0.1, affine=True, track_running_stats=True)
          (OSA5_1_concat/relu): ReLU(inplace=True)
        )
        (ese): eSEModule(
          (avg_pool): AdaptiveAvgPool2d(output_size=1)
          (fc): Conv2d(1024, 1024, kernel_size=(1, 1), stride=(1, 1))
          (hsigmoid): Hsigmoid()
        )
      )
      (OSA5_2): _OSA_module(
        (layers): ModuleList(
          (0): Sequential(
            (OSA5_2_0/conv): Conv2d(1024, 224, kernel_size=(3, 3), stride=(1, 1), padding=(1, 1), bias=False)
            (OSA5_2_0/norm): BatchNorm2d(224, eps=1e-05, momentum=0.1, affine=True, track_running_stats=True)
            (OSA5_2_0/relu): ReLU(inplace=True)
          )
          (1): Sequential(
            (OSA5_2_1/conv): Conv2d(224, 224, kernel_size=(3, 3), stride=(1, 1), padding=(1, 1), bias=False)
            (OSA5_2_1/norm): BatchNorm2d(224, eps=1e-05, momentum=0.1, affine=True, track_running_stats=True)
            (OSA5_2_1/relu): ReLU(inplace=True)
          )
          (2): Sequential(
            (OSA5_2_2/conv): Conv2d(224, 224, kernel_size=(3, 3), stride=(1, 1), padding=(1, 1), bias=False)
            (OSA5_2_2/norm): BatchNorm2d(224, eps=1e-05, momentum=0.1, affine=True, track_running_stats=True)
            (OSA5_2_2/relu): ReLU(inplace=True)
          )
          (3): Sequential(
            (OSA5_2_3/conv): Conv2d(224, 224, kernel_size=(3, 3), stride=(1, 1), padding=(1, 1), bias=False)
            (OSA5_2_3/norm): BatchNorm2d(224, eps=1e-05, momentum=0.1, affine=True, track_running_stats=True)
            (OSA5_2_3/relu): ReLU(inplace=True)
          )
          (4): Sequential(
            (OSA5_2_4/conv): Conv2d(224, 224, kernel_size=(3, 3), stride=(1, 1), padding=(1, 1), bias=False)
            (OSA5_2_4/norm): BatchNorm2d(224, eps=1e-05, momentum=0.1, affine=True, track_running_stats=True)
            (OSA5_2_4/relu): ReLU(inplace=True)
          )
        )
        (concat): Sequential(
          (OSA5_2_concat/conv): Conv2d(2144, 1024, kernel_size=(1, 1), stride=(1, 1), bias=False)
          (OSA5_2_concat/norm): BatchNorm2d(1024, eps=1e-05, momentum=0.1, affine=True, track_running_stats=True)
          (OSA5_2_concat/relu): ReLU(inplace=True)
        )
        (ese): eSEModule(
          (avg_pool): AdaptiveAvgPool2d(output_size=1)
          (fc): Conv2d(1024, 1024, kernel_size=(1, 1), stride=(1, 1))
          (hsigmoid): Hsigmoid()
        )
      )
      (OSA5_3): _OSA_module(
        (layers): ModuleList(
          (0): Sequential(
            (OSA5_3_0/conv): Conv2d(1024, 224, kernel_size=(3, 3), stride=(1, 1), padding=(1, 1), bias=False)
            (OSA5_3_0/norm): BatchNorm2d(224, eps=1e-05, momentum=0.1, affine=True, track_running_stats=True)
            (OSA5_3_0/relu): ReLU(inplace=True)
          )
          (1): Sequential(
            (OSA5_3_1/conv): Conv2d(224, 224, kernel_size=(3, 3), stride=(1, 1), padding=(1, 1), bias=False)
            (OSA5_3_1/norm): BatchNorm2d(224, eps=1e-05, momentum=0.1, affine=True, track_running_stats=True)
            (OSA5_3_1/relu): ReLU(inplace=True)
          )
          (2): Sequential(
            (OSA5_3_2/conv): Conv2d(224, 224, kernel_size=(3, 3), stride=(1, 1), padding=(1, 1), bias=False)
            (OSA5_3_2/norm): BatchNorm2d(224, eps=1e-05, momentum=0.1, affine=True, track_running_stats=True)
            (OSA5_3_2/relu): ReLU(inplace=True)
          )
          (3): Sequential(
            (OSA5_3_3/conv): Conv2d(224, 224, kernel_size=(3, 3), stride=(1, 1), padding=(1, 1), bias=False)
            (OSA5_3_3/norm): BatchNorm2d(224, eps=1e-05, momentum=0.1, affine=True, track_running_stats=True)
            (OSA5_3_3/relu): ReLU(inplace=True)
          )
          (4): Sequential(
            (OSA5_3_4/conv): Conv2d(224, 224, kernel_size=(3, 3), stride=(1, 1), padding=(1, 1), bias=False)
            (OSA5_3_4/norm): BatchNorm2d(224, eps=1e-05, momentum=0.1, affine=True, track_running_stats=True)
            (OSA5_3_4/relu): ReLU(inplace=True)
          )
        )
        (concat): Sequential(
          (OSA5_3_concat/conv): Conv2d(2144, 1024, kernel_size=(1, 1), stride=(1, 1), bias=False)
          (OSA5_3_concat/norm): BatchNorm2d(1024, eps=1e-05, momentum=0.1, affine=True, track_running_stats=True)
          (OSA5_3_concat/relu): ReLU(inplace=True)
        )
        (ese): eSEModule(
          (avg_pool): AdaptiveAvgPool2d(output_size=1)
          (fc): Conv2d(1024, 1024, kernel_size=(1, 1), stride=(1, 1))
          (hsigmoid): Hsigmoid()
        )
      )
    )
  )
  (img_neck): CPFPN(
    (lateral_convs): ModuleList(
      (0): ConvModule(
        (conv): Conv2d(768, 256, kernel_size=(1, 1), stride=(1, 1))
      )
      (1): ConvModule(
        (conv): Conv2d(1024, 256, kernel_size=(1, 1), stride=(1, 1))
      )
    )
    (fpn_convs): ModuleList(
      (0): ConvModule(
        (conv): Conv2d(256, 256, kernel_size=(3, 3), stride=(1, 1), padding=(1, 1))
      )
    )
  )
  init_cfg={'type': 'Xavier', 'layer': 'Conv2d', 'distribution': 'uniform'}
  (grid_mask): GridMask()
  (pts_voxel_layer): SPConvVoxelization(voxel_size=[0.075 0.075 0.2  ], point_cloud_range=[-54. -54.  -5.  54.  54.   3.], max_num_points=10, max_voxels=(120000, 160000), num_point_features=69)
)
/home/xuezhzh/miniconda3/envs/cmt/lib/python3.8/site-packages/mmdet3d/apis/train.py:243: UserWarning: config is now expected to have a `runner` section, please set `runner` in your config.
…
